experiments/ryan_implementation/lander_dqn_sandbag.pth (torch, 75929 bytes, 6 tensors)

net.0.weight f4 [128, 8]
00000000: 5067 86be 54fd 61be 18ae f63e 7615 11bf
00000010: 40e9 0abd 1212 31be d25d 46be 2a9d 2bbf
00000020: e13e 65be f38a 1d3e c9ec cbbe cf7f aebe
00000030: 00e3 f5be 05f1 1ebf ff90 1f3f 74d3 ce3e
00000040: 19a9 9cbe 7bd4 c3bd 54e6 683d 3e24 ba3e
00000050: cdab a8be 5e69 1ebf 59a6 d23e bf33 a03e
00000060: e920 01be 9b1a b6be 196e c83e 52a9 f53e
00000070: dada 6fbd 9932 09bf 51b7 0dbe 2ea9 25be
00000080: 3f87 eb3b e2c7 d33e e419 063f 7c77 5eba
00000090: e73c 99bd 9203 923e df6a 403f 72ee 9a3c
000000a0: 48e0 d03e e80e 113d 877b 613f 2a6e a53d
000000b0: 05a2 34be d0ee 8e3e cc72 c5be 2f1d b9be
000000c0: 56e4 a4be 4cf4 28bf 777e 843e e283 f0be
000000d0: 29d4 cbbe 1127 27be 668c 0a3f 61d5 ab3e
000000e0: f962 a6be 26c8 723d 1338 973d d6de 24bf
000000f0: 5cac 6dbe b2ec 79be 4ec2 773e 2ff7 bf3e
00000100: ab07 813e 976c d03d cf49 80bd 370d 863d
00000110: dc75 163f 22c0 c03e 1dec 66bd efde 33be
00000120: 8285 ff3d 8d22 18bf 5e11 6a3e fcfe 08bf
00000130: c99e 1bbe 41ae 13be 8690 c53e bf44 d83e
00000140: 6c52 c83e a1ff 8a3e beb6 30bd 9e18 2f3e
00000150: 5ff1 f33e 13c1 213f b6ce 8c3e edc6 a13e
00000160: 43d3 8a3e fcfa 56bd b6fa 113f 85b7 bbbe
00000170: 4bdc 263e f088 913e 73b4 313f a86d 0bbf
00000180: 0aa9 3d3e 0029 a6bf d9c8 cbbd 4bea 24be
00000190: a45f 86bd 4a7f 293e a4a0 313f 5680 79be
000001a0: b575 3ebe 4b9a 083d 74b7 08bf c368 2ebb
000001b0: 2ca9 6e3e bdfb c93d fa7f a1bd d203 993d
000001c0: bf0d 053e 237e 5d3e 1b85 81be 5262 f5be
000001d0: 9a0e 3abe ef2a 073e c84c f8be dac4 4a3e
000001e0: 89d1 cd3d 1c87 adbc 4608 39be 9f0c 86be
000001f0: c9d7 c13e 6045 113d 4665 b53e d15e 273f
00000200: fd8f ba3e 4332 98bf 6e48 61be 53eb dfbe
00000210: 0bf8 0cbd 63ef 883d a59a 463f 4a8e efbe
00000220: a95d c03e b71f 6b3e 0ff7 04bf 6c7d 023f
00000230: db8c e23e 3e01 f4bd 4e9d 73bc 75e2 c7be
00000240: c9f7 c33c 80be 71be a701 f53d 8587 23bf
00000250: dda1 29bf e1f8 ddbd b483 0e3f 228e 26bd
00000260: 0714 c43d 9ef3 613e e39b 0f3e 3bfa 1abe
00000270: 28c8 22bf 5349 e23e 5b44 58bf d190 33bf
00000280: 5873 b53e c3df 94bf fc80 c4bc 02f9 933c
00000290: 6674 2ebe 46ab 14ba aa65 263f f460 0abe
000002a0: 3745 d43e 4000 09be c5b7 86be 3062 99be
000002b0: aed9 ddbd 5fc2 bebd c55e 053f cf32 be3e
000002c0: 9d4b 913d fa7d b73e 94f8 773d b1e8 febb
000002d0: 988f f33d 7078 babc 9b4f 853e 2caa 253f
000002e0: db20 17be f4d9 d7bd 3078 0a3f a932 9bbe
000002f0: fd3d 533e 21c8 3b3d bc07 91be 11cb cbbe
00000300: b083 173f 6daf bd3d 775b 10bf 3c64 183e
00000310: 7314 d13e c708 debe 43ec 853e 1b7f d7be
00000320: 1d88 233d 131a 533e bae6 543e 89b8 68be
00000330: 4d2f ad3e f914 90be 8160 04bf dfb0 c7be
00000340: 4f86 11be 5173 6dbe 309d 0fbf 95d0 093e
00000350: 8ca9 5f3e 08f1 f2bd c6d5 ba3d 2869 023f
00000360: 49d1 a53e ffca 453d 430a 69be 704f 19bf
00000370: 8ccd 043f 46fd 713d 879f 653f 3b5a b7be
00000380: 98ff bebe e768 ac3d 76fe c6bd 1962 4fbe
00000390: 1aa0 a2be fe94 2f3e ec1f 37bf 21a4 49be
000003a0: 3b29 aa3e 8622 4bbf 7764 453d 3b03 c4be
000003b0: b3c2 823e 0602 65be 35a3 0bbf 3b68 013f
000003c0: 5e13 9b3d c8c4 30bf 9556 923c 52fb 0abe
000003d0: ba14 dc3d ef91 84be d432 203f fed4 8fbe
000003e0: 04fd a93e e75c db3d e157 743d 3fbb 68bd
000003f0: fc86 7f3e 376d 123e 20ee 66bf ba95 a2bc
-0.26250696 -0.22069293 0.48179698 -0.5667337 -0.03391385 -0.1729205 -0.19371727 -0.6703669
-0.22387268 0.15385036 -0.3982909 -0.34081885 -0.4802475 -0.62086517 0.6233062 0.403957
-0.3059776 -0.09562012 0.056860283 0.36355776 -0.32943574 -0.6187953 0.41142538 0.3128948
-0.1261021 -0.35567173 0.39146498 0.47980744 -0.058558322 -0.5359283 -0.13839461 -0.16177818
0.0071877535 0.41363436 0.52383256 -0.00084864325 -0.07482319 0.2851835 0.7516307 0.018912528
0.40796113 0.035414606 0.8807911 0.08077653 -0.1763993 0.27916574 -0.38564146 -0.36155078
-0.32205456 -0.6599777 0.25877735 -0.4697562 -0.39810303 -0.16323496 0.5412048 0.33561233
-0.32497385 0.059272908 0.07383742 -0.6440252 -0.23210281 -0.24406698 0.24195215 0.37493274
0.25201163 0.10176962 -0.06264078 0.06545489 0.5877359 0.37646586 -0.05637752 -0.17565511
0.124766365 -0.5942772 0.22858188 -0.53514075 -0.1519729 -0.14421941 0.38586825 0.4223995
0.39125383 0.27148154 -0.043143027 0.17099234 0.4764509 0.6318523 0.27501458 0.3159708
0.27114305 -0.05248545 0.5702318 -0.36663452 0.16294973 0.28424788 0.6941597 -0.544642
0.18521515 -1.2981262 -0.09950418 -0.16105 -0.06561211 0.16552463 0.69385743 -0.24365363
-0.18599589 0.03335027 -0.5340493 -0.0026612736 0.23306721 0.098624684 -0.07885738 0.07471432
0.12993525 0.21630149 -0.25296864 -0.47926575 -0.18169633 0.13199972 -0.4849608 0.19801655
0.10049731 -0.02118259 -0.18069562 -0.26181504 0.37859944 0.03546655 0.35428828 0.65379053
0.3643798 -1.1890339 -0.22000286 -0.43734226 -0.03441624 0.066862844 0.7757972 -0.46788245
0.37571457 0.22961317 -0.5193948 0.5097263 0.4424809 -0.119142994 -0.014869047 -0.3903996
0.023921864 -0.23607826 0.11963206 -0.6387866 -0.6626261 -0.108384855 0.55669713 -0.040662892
0.095741324 0.22065589 0.1402431 -0.15134518 -0.63586664 0.44196567 -0.844793 -0.7014285
0.35439563 -1.1630787 -0.023987286 0.018063072 -0.1703659 -0.00056712737 0.6499888 -0.13513547
0.41459057 -0.13379002 -0.2631208 -0.29957724 -0.10832535 -0.09314417 0.5209773 0.3714814
0.070945 0.358383 0.060539797 -0.007779204 0.11892623 -0.022762507 0.26037297 0.64712787
-0.14758627 -0.10539618 0.5408964 -0.30312088 0.20629115 0.045845155 -0.28326213 -0.39803365
0.59185314 0.092619754 -0.56389564 0.14881986 0.40835914 -0.43366072 0.26156816 -0.4208916
0.03992473 0.20615415 0.2079114 -0.22726645 0.3382515 -0.28141 -0.51709753 -0.3900213
-0.14211391 -0.23188521 -0.56099224 0.13458474 0.21842021 -0.11862379 0.09122805 0.50941706
0.32386234 0.048289295 -0.22757821 -0.59886837 0.5187614 0.05907943 0.89696544 -0.35811028
-0.37304378 0.08418446 -0.09716503 -0.20252265 -0.31762773 0.1714668 -0.71533084 -0.19691516
0.3323458 -0.79349554 0.048191514 -0.38283715 0.2553917 -0.22364053 -0.5454591 0.5054967
0.075720534 -0.69050264 0.017863551 -0.13572434 0.10746141 -0.25892588 0.6257756 -0.28092188
0.33200848 0.10711079 0.05965412 -0.056819197 0.24953836 0.14299475 -0.902071 -0.019846786

net.0.bias f4 [128]
00000000: b5e6 5c3e 2f80 a43d 8265 febc 8296 99be
00000010: aba4 23be c348 513e 0c3b 1f3d 8dac 053e
00000020: 5eb1 d1bd 9561 e53d dcca aebe 1ec2 093e
00000030: 7d87 3a3a f7d8 cfbd 173d b03d d3a4 78be
00000040: f941 68be 4b69 febd 8662 993e 1a0e 393d
00000050: 1c96 f4bd d7cf 5d3e 3828 a23e f610 ca3d
00000060: 0c7a 8c3e d51d ba3d d59f 653e 1554 12be
00000070: 7816 da3e b60b 483e 33f7 923c 7f20 f43e
00000080: 94af 6abe 5fb5 fd3c 0920 083e e958 27be
00000090: f30f e23d 044e 60be ff93 42be 6e8f 523e
000000a0: b3ee a7be d36c a43e 60f0 78bd db8e 713e
000000b0: 8cfb 4fbc 6a36 b3be d52f 8fbd e1dd 59be
000000c0: 69e9 583d 24aa 813e d407 d03e 3e31 1abe
000000d0: c29a 243e b8ea 21be e3df 9f3e 3715 6fbd
000000e0: a09e f7bc 510d a23d b194 ac3c 17bd 6e3c
000000f0: 50b8 883e 5573 8b3e 8c4f c9bd 6952 ec3e
00000100: 1a03 4b3e 655d 463e b041 0d3e 3c15 fa3d
00000110: 491f 1f3e 9426 373e cc22 95be 58cc 753e
00000120: bc40 073e 6c90 79be 4662 6ebe 4dde 47bd
00000130: 5acd 4f3d 1877 68be 7bfa f93d 28a7 28be
00000140: d914 113e c05c 9d3d 4a56 10be b54b 4e3e
00000150: ced1 5bbe 2b4b 723e 96e2 93bd dacf 3f3e
00000160: 6600 233e 550f a0bd 5165 d53e 6f3b d6bd
00000170: 5dd8 ba3d 56d9 063d 5afc f13d 5b62 a03d
00000180: 26ab 7a3e 4349 54bc 36a9 803e e71e 4c3e
00000190: 4c86 9c3e e277 85be 8f64 b33e e18a 46be
000001a0: b2ed cf3e c31a e6bd b3f8 80be a085 6abe
000001b0: 7f29 063d 14c8 26be b465 f83c dd7f 843d
000001c0: 3b4a c43e add5 ea3d 3afa 1a3e 4eee 1fbe
000001d0: b718 763d 5888 713d 8d88 ce3d de2a 86be
000001e0: 62b8 99bd 2ad4 d739 ed09 cb3e ed6d e93d
000001f0: 9b77 cc3e ec26 e73d 0b36 5cbe e9ba 6d3e
0.21572383 0.080322616 -0.031054262 -0.2999764 -0.15980785 0.20437913 0.03887467 0.13054104
-0.10238908 0.11200253 -0.34139144 0.13452956 0.0007115526 -0.10148805 0.08605402 -0.24281625
-0.22681417 -0.12422427 0.2995798 0.045179464 -0.119426936 0.21661316 0.3167131 0.09866516
0.27436864 0.09087721 0.22424252 -0.14289887 0.42595267 0.19535717 0.01794014 0.47681043
-0.2291854 0.030970274 0.1329347 -0.1634251 0.11038198 -0.2190476 -0.19001769 0.20562527
-0.327993 0.32114276 -0.060776114 0.23589651 -0.012694251 -0.35002452 -0.06991545 -0.21276046
0.052956972 0.2532512 0.40630972 -0.15057847 0.1607466 -0.15812194 0.312255 -0.05836984
-0.030227005 0.07912696 0.021066995 0.01457145 0.2670312 0.2723643 -0.098296255 0.46156624
0.19825402 0.19371565 0.13794589 0.122110814 0.15539278 0.1788581 -0.2912811 0.24003732
0.13208288 -0.24371499 -0.23279676 -0.048795987 0.050732948 -0.2270168 0.122059785 -0.16470015
0.14168109 0.07683706 -0.14095417 0.20146067 -0.21466753 0.23661487 -0.07220952 0.18731633
0.1591812 -0.07815424 0.4167886 -0.10460555 0.09123299 0.03292211 0.1181571 0.0783126
0.2447935 -0.01295692 0.25129098 0.19933663 0.3057121 -0.26068026 0.35037658 -0.19388916
0.40611035 -0.11235573 -0.25189742 -0.22902536 0.032754418 -0.16287261 0.030321933 0.064697005
0.38337883 0.11466537 0.15134516 -0.1561825 0.060082164 0.05896792 0.10084639 -0.2620458
-0.07505871 0.0004116607 0.3965601 0.1139792 0.39935002 0.11286721 -0.21504991 0.23215832

net.2.weight f4 [128, 128]
00000000: 890c babd f0f0 823c 06b4 3bbd e60a cd3d
00000010: ac0e 103c 1a61 c6bd d0c5 973d d876 83bd
00000020: 1f85 073e 48e6 ec3d 81ba 703e 3e7f 963d
00000030: cb32 e23e 6481 8f3c ea32 9fbd 1d86 36be
00000040: 1382 ee3e fc98 19be 9266 bf3c f7aa b4be
00000050: b44b a03e f582 983d f4b6 c4bb 3af1 bbbd
00000060: 2d23 57be 10bc 973c fe2a 4bbb a53d 4e3e
00000070: a10f 5abe 924f 2d3e 90ef 873d c9fa 89bd
00000080: d743 ee3e f010 a93b 9307 c4bc 1195 4b3e
00000090: 6987 00bd c004 c33c ca21 123e 418e 03bc
000000a0: 2c6e 483e fa10 a23e e93e 5b3e efb7 1ebd
000000b0: b19a a13e 7ec6 a73e 7f24 463e f13d 8ebe
000000c0: 9a2f 5ebb 68a4 e63e d3be 3ebe 4924 12be
000000d0: add6 82be 3d6f d03e a1a0 dc3d 32d6 4d3e
000000e0: 33a8 73bd e83e 783e 84a6 083e c05e f7be
000000f0: da8e f2bd 93db 39bc fa15 423d 321c bebd
00000100: 5d73 d63d d038 d33c 1fc3 093d 863e be3d
00000110: d0c6 103e 611d 9f3e 2634 fa3e 3876 35bd
00000120: 37de 9b3e 9f3d e53d 2334 0c3e 223c 90bc
00000130: b959 093e 1a74 093e 5ff9 f93e 4117 513e
00000140: a8a6 823e 226f 62bc bce6 0cbf 0816 c93e
00000150: b7dd cb3e 7084 4dbd 4370 62bd a406 7a3e
00000160: 84ca 44bd b1bb de3d ffce bcbb a1f3 183d
00000170: 6c16 d73c 8895 843a be3f c9be 2939 e63d
00000180: 96bf b13d b056 753e 073e 38bb e69b 8b3d
00000190: a5f2 26bc b0ff 8bbd 62e2 ea3e 26a9 da3d
000001a0: a5b2 22be c271 ba3e 750a 13be 27be 833d
000001b0: 1cac 61bd cb25 573d a229 cabd 4090 1b3e
000001c0: f53d a83d 2168 213e 5595 aebc 5398 413e
000001d0: 401e 943e a4ab 023e 92ea bb3e 6480 303e
000001e0: 59dd db3e 3583 2cbe 1549 083d 3ac0 ee3d
000001f0: c27e 1138 b70e c63d 7b52 a03d dd0c 863e
00000200: e956 bf3d e535 f4be f4db 8abe 21e5 64be
00000210: a70c edbd 124b 2e3e bec1 babd 4fb4 c1bd
00000220: b30b 373d df2e c63d e1de adbd 5f6c 9f3d
00000230: 1a13 f2be 40bc 88bd 9ad2 50bd 1b77 463e
00000240: 5ee9 acbe 2665 79be d106 6dbc c2c2 933e
00000250: a186 babe c486 c8bd 691c 20be 852f 8a3e
00000260: 9160 cf3d b8f1 b73d 8e51 cfbd 7a9b 043e
00000270: 2e14 45be c462 423e 492b 27be 9d7f f93d
00000280: 2b15 f9bd c39f e73d 0dd4 febe 64b0 283e
00000290: 218b 713e 6be4 cdbe bdb2 903d 2d32 203d
000002a0: 4467 373d 3a46 1e3d 6712 abbe b598 4d3d
000002b0: 6a1e 7a3d 3dd1 1f3f 7052 113e f263 f6bc
000002c0: 2b4b 35bd 0e0c af3d d7ee 883d 9e8d cbbd
000002d0: e9fe f5bb 97e6 2cbd 155b b93d 0f23 5d3e
000002e0: 2194 4c3d f510 843d 1769 8c3c 6c70 833e
000002f0: e2b0 c2bd 5806 813d 8048 8e3c 6bf6 97bd
00000300: 3322 21bd 53e6 e13e 2636 0f3e dce8 33bd
00000310: c093 063e e1f7 1bbf 3496 0b3f cc05 7fbc
00000320: e8da 7d3e 4d07 d4bd 6448 64be 09dd 013e
00000330: 5809 28bd 3cf7 55be 81f5 db3e f691 963e
00000340: 967e 14bd 9fe4 b2be 0f8f 433e b452 35be
00000350: b3fa 44bd 6949 61ba 30ac 003d 92c8 23be
00000360: d8de d83d d6b8 6d3e 99a5 79bc 51c5 a33d
00000370: 7163 063e b639 e5bc 665e 4cbf 8465 0abd
00000380: 4f7f fb3d 6d81 e4bd 1cf4 e33d fc8b ad3d
00000390: 1692 7ebd 0196 5f3d 9f4a 86be 2f65 e9bc
000003a0: ebd0 1a3e 0358 62be 3e04 a53c fa14 973d
000003b0: fdeb b03d 0ce4 b4bd 4369 dbbc 3c3e 26be
000003c0: 4edc 423d b398 ac3d 39db babb 3239 303d
000003d0: cb64 2abe 65e9 2fbe ce9f 133e c134 27bf
000003e0: 8f78 303e 2c95 babd 04cd e83d f0c6 18be
000003f0: 44fb 1cbc b803 ad3d 570c 0c3e 059f 233d
-0.09084422 0.015984029 -0.04582598 0.10011844 0.008792561 -0.096864894 0.074107766 -0.06419152
0.13234375 0.1156736 0.23508646 0.07348488 0.44179377 0.017517753 -0.07773383 -0.17824598
0.46583614 -0.14999765 0.023364339 -0.35286686 0.31307757 0.07446853 -0.006003255 -0.0917687
-0.21009512 0.018522292 -0.0031000967 0.20140703 -0.21295024 0.16924885 0.0663749 -0.067372866
0.46536133 0.00515949 -0.023929393 0.19881083 -0.031379137 0.023805976 0.14270702 -0.008029521
0.19573277 0.31653577 0.21410717 -0.03874963 0.31563333 0.32768625 0.1934986 -0.27781633
-0.0033902884 0.45047307 -0.18627481 -0.14271654 -0.2555441 0.40709868 0.10772825 0.2010124
-0.05948658 0.24242747 0.1334477 -0.48314476 -0.11843653 -0.0113438545 0.04738424 -0.092827216
0.104712225 0.025783926 0.033633348 0.09289269 0.14138341 0.31077102 0.4886791 -0.044302195
0.30442974 0.11193394 0.13691764 -0.017606799 0.13413133 0.13423195 0.48823068 0.20419027
0.25517774 -0.013820441 -0.5503957 0.3927462 0.39817593 -0.05017513 -0.055282842 0.24416596
-0.048044696 0.10875643 -0.0057619805 0.037341718 0.026255809 0.0010115365 -0.39306444 0.11241371
0.0867912 0.2395885 -0.0028113143 0.06816845 -0.010189687 -0.06835878 0.4587584 0.10676794
-0.1588846 0.36414915 -0.14359458 0.06432753 -0.055095777 0.052526277 -0.09871222 0.15191746
0.08214942 0.15762378 -0.021311441 0.18905763 0.2892933 0.12760788 0.367024 0.17236477
0.42942312 -0.16846927 0.03327282 0.11657758 3.4688746e-05 0.096707754 0.07828232 0.2618169
0.09342749 -0.47697368 -0.27120936 -0.2235303 -0.11574679 0.17020825 -0.09118985 -0.09458219
0.04468889 0.09676909 -0.084897764 0.07784342 -0.47280198 -0.06676531 -0.050982095 0.19381373
-0.33771795 -0.24354991 -0.014466957 0.28859526 -0.3643084 -0.097913295 -0.15635838 0.2698938
0.101258405 0.08981651 -0.10122977 0.12949935 -0.19245979 0.18982989 -0.16325106 0.121825434
-0.121622406 0.11309769 -0.49771157 0.16473538 0.2358823 -0.40213332 0.070653416 0.03911035
0.044776216 0.038641192 -0.33412477 0.05019446 0.06106416 0.6242865 0.14191604 -0.030076955
-0.04426114 0.08547221 0.0668618 -0.09939121 -0.0075071943 -0.042212095 0.09050576 0.21595405
0.049945954 0.06448547 0.017139954 0.2567171 -0.09506394 0.06300038 0.017368555 -0.074200474
-0.039339256 0.44121036 0.139855 -0.043923244 0.131423 -0.6092511 0.54526067 -0.015565347
0.24790537 -0.10352955 -0.2229324 0.12681974 -0.041024536 -0.20895094 0.42960742 0.29408234
-0.036253534 -0.3494005 0.19097541 -0.1770733 -0.048090648 -0.0008594008 0.03141421 -0.1599448
0.10589379 0.2321504 -0.015237235 0.079966195 0.13123871 -0.02798162 -0.7983154 -0.03378822
0.122801416 -0.111574985 0.111305445 0.084739655 -0.062151037 0.054586414 -0.26228806 -0.02849063
0.15118758 -0.22103886 0.020143624 0.07377048 0.08638761 -0.08832559 -0.026783591 -0.16234678
0.04757338 0.084275626 -0.005702403 0.043023296 -0.16640012 -0.17178877 0.1441643 -0.6531487
0.1723349 -0.091104835 0.113672286 -0.14919639 -0.009581391 0.08447975 0.13676582 0.039946575

net.2.bias f4 [128]
00000000: 9568 c33d ed8e bdbd ceb1 e53d b05e 843e
00000010: 0eca 5dbd b4cb 323e 0e43 cbbd efb7 04bd
00000020: 831e 983d b371 983d 9f08 e6bd 8eff 723d
00000030: b8e6 18be 9014 99bc 8fcc 9cbd 5112 98bb
00000040: b19b ddbc aaae 69bd 5d91 12bd aa68 a43d
00000050: 8edd aabd fc9b 65bd 780e 0c3e 1129 f3bd
00000060: 85dd fa3a 6cce 223d f3f0 b8bc d673 363e
00000070: b6ff 7f3d f7cf 90bd 006f 223d 9f96 8f3c
00000080: 9f19 c2bc 09f0 853d c7ed a6bb 3fd5 9dbd
00000090: cd8f 8abd 0212 92bd 5957 acbd a5f4 743d
000000a0: 2385 c3bd 8968 953c d0c0 693d 4401 243d
000000b0: f892 fb3d 0082 003b 3b29 973d 24fb de39
000000c0: ec04 be3c cae6 7b3d 28e9 04be f77f d03d
000000d0: bc14 ddbc c710 c5bd 5b51 dc3b 9ea4 953c
000000e0: e3d1 943c c0ce 513d 94b9 01bd 9f68 813c
000000f0: 18d4 2c3d 4031 79bd 3ee2 72bd f7a5 833d
00000100: 25ec 61bd 4363 4b3d de3d 4e3d 592b a8bd
00000110: 08e7 a73d 45bf 5abd 3806 f83c 42fb 1c3d
00000120: ff27 5bbc 7c6b 913d a938 e0bc 097b c03c
00000130: 3a59 d53c 4d6f 593d 8fb0 b7bd 4d2b 663d
00000140: e7de b9bc 1f1f 81bd 95b1 673c 13bb 29bd
00000150: db17 e2bd 2803 83bd 8297 83bd 6d5d 223d
00000160: f5c3 953d 3ad3 f93d fd2b 04bc dc20 2f3d
00000170: b88b 993d 3102 6cbd 6cb2 72bd ef61 ffbd
00000180: 8fb5 0b3e 0534 233d 6afd 533e 6251 163d
00000190: 7e3e 5e3e 2ac7 843d e876 373d aa0d 1f3d
000001a0: 20b1 013d e581 97bd e739 bf3a ec00 9b3d
000001b0: 05c3 e43c bd78 943d 1871 9e3b 0ed2 203b
000001c0: 463c 1d3e 4bcb 593b a858 32bd 4882 333c
000001d0: 8325 28bd e97d f0bc fbbc 97bd 4b6c 043d
000001e0: 442f 7e3d eced 4c3d a730 8ebd f4aa f43c
000001f0: 7d37 993d b6ac a63d b677 44bd 573d b0bb
0.09541432 -0.092557766 0.11215554 0.2585349 -0.054147772 0.17460519 -0.09924899 -0.032401975
0.07427695 0.074435614 -0.11232113 0.059325747 -0.14931762 -0.018686563 -0.07656204 -0.0046408554
-0.027051779 -0.05705134 -0.03578316 0.080277756 -0.083430395 -0.05605696 0.13677394 -0.11873067
0.0019139504 0.03974764 -0.022575831 0.17817625 0.062499724 -0.07070916 0.03965664 0.017527876
-0.023693858 0.06539924 -0.0050942632 -0.07706689 -0.06765709 -0.07132341 -0.08415098 0.059803624
-0.09546878 0.018238323 0.057068646 0.04004027 0.122838914 0.0019608736 0.07380911 0.00042530254
0.023195706 0.061499394 -0.12979567 0.10180657 -0.026987426 -0.09622341 0.0067235655 0.018266972
0.018166488 0.051222563 -0.03167112 0.015796958 0.042194456 -0.060837984 -0.059297793 0.0642814
-0.055156846 0.04965521 0.05035197 -0.08211393 0.081983626 -0.053405065 0.030276403 0.038325556
-0.013376235 0.07100579 -0.027370768 0.023496168 0.026043523 0.05308466 -0.08969223 0.05619364
-0.022689296 -0.06304764 0.01414146 -0.041438174 -0.11039706 -0.063970864 -0.06425382 0.03963988
0.073127665 0.121984914 -0.008067128 0.042755947 0.07497352 -0.057619277 -0.059252188 -0.12469851
0.13643478 0.03984453 0.20702139 0.036698706 0.21703526 0.064833 0.044791132 0.03883139
0.03166306 -0.07397822 0.00145894 0.07568535 0.027925024 0.072495915 0.004835259 0.0024539265
0.15355024 0.0033232744 -0.04354158 0.010956354 -0.0410514 -0.029356914 -0.07409092 0.03232984
0.062056795 0.050031587 -0.069428734 0.029866673 0.07481287 0.08138411 -0.047965728 -0.005378406

net.4.weight f4 [4, 128]
00000000: b517 0dbe cd59 73be 75e5 513d f796 d83e
00000010: 147c 96be d23c c2bd 8ebb e03c ed8e c43c
00000020: adcd f93b 5f4b 13be 5aa7 dfbe 2a9d d5bd
00000030: 7c13 10be 2be7 a5bd 101c b93c 75cf 05bd
00000040: 9ca5 683e ed82 e53c 7ff5 b23b cec9 1dbe
00000050: 8b6f 0ebe 9a48 93be af61 d5bd 42ec 96bc
00000060: 01ca e3be abae 453f 9f97 68bb cac8 343f
00000070: ca28 70bd 3d29 d7be 4ed1 07be 7586 1fbe
00000080: 650c 1bbd c92e f53e 945a 493d ebd7 443c
00000090: 4edb 90be ba7a 9d3c 9f41 113e 31a5 8fbd
000000a0: a6bc 1bbc b2ec 88bb 09c4 a4bd af58 1cbd
000000b0: 250d 61be 6348 93bd 9933 2ebe d62d 4cbe
000000c0: d816 1f3d 242e 7dbe c750 3f3d 5526 e8bd
000000d0: be09 b5be a537 60bd c50b 96be 1082 8f3c
000000e0: 1124 6ebe 8fde 2a3f f637 553e 3f98 d73b
000000f0: f7e7 aebc 621e 3a3d fa32 0b3c 5ed1 5c3e
00000100: 09c3 4cbe e17c fb3e 5250 2b3f a508 193d
00000110: 5cde 09be 4553 6c3d 0390 c03b 7f5f 2fbe
00000120: 4818 98bc 91a9 5b3e a80a 3dbe 4d57 56be
00000130: 921d e13d 2d97 f23d d417 973d d41b 99bd
00000140: d20e 53be 597e 60be 3df6 07be 4c68 323e
00000150: 4d04 75bc 35da 08be bb4f 6fba 83d5 463e
00000160: 6259 283e 3a63 6ebe 54ce 50be ebc9 24bd
00000170: 26ba 613c f5ad e5be 63a2 423d 7616 f53a
00000180: af8a 7e3d 0a88 d6bd 4c93 be3e f4a3 903d
00000190: 8c64 b63e de85 0b3d a7c0 1fbe e494 f1bd
000001a0: 6696 77ba afae 873b 4acc 5cbe 25aa e7be
000001b0: 0711 633d 2c9a 45be 735d f0bc 0e44 993d
000001c0: d099 f93d 5765 ccbd 573c 473d 84fd d5be
000001d0: 0399 173e 51de 8d3e b459 573d 3fe3 1fbe
000001e0: 85d6 113d d426 613d cd69 21be 2f63 33bd
000001f0: 270a 05bd f9b2 ecbd 99c0 bebd e0cc 84be
00000200: ff6a b4be cbda 7a3e 35e6 c93e ee76 753e
00000210: a608 83be 3077 d3bd 7fcb 8fbc 8807 fe3b
00000220: 4699 293d 452a d6bb f194 2dbe cb9b b43d
00000230: ddb5 a5be 1ec9 883d 22e1 833d 045d b33d
00000240: c98e d4be d884 0ebb 8401 d8bd 2612 63be
00000250: 12d1 78be f0fe fdbd cd7d 1cbf 36f6 5a3c
00000260: 0c7e 8bbd bc69 803f af85 a9bd 1855 d53e
00000270: 7498 47bd b13c 663c dffa 90be f8d0 a83d
00000280: bd72 5dbd bcc9 9dbb 289f 183d 06a9 153d
00000290: ffaa 9f3d d3e3 883d 0ad3 bcbe 60dd 35be
000002a0: db9a 5c3d e220 bd3c 39d4 d4bd 6cbf 6d3d
000002b0: e004 323e ebf1 1839 adab e23d 89c5 75be
000002c0: 61c3 373d dfe3 9fbd 54ce b1be 0f47 26be
000002d0: 7225 dfbd 89b8 86bd 2929 b03d a275 313d
000002e0: fc11 223d f96b 5dbe ea5d c3be e46e e139
000002f0: d14d af3c b139 50bb e43a e0bd 16fe f2bd
00000300: 9e52 053b f50c f03e 6df3 2abf 6165 f8bb
00000310: 9fb6 1fbe 0c10 a23c ede4 a73c 10b5 a3bc
00000320: c994 163d d50a cabe 5e1e 003e 3df2 653e
00000330: 315e 67be 797f eb3e ba10 af3d 2af3 e9bc
00000340: 0f81 c6be 5977 46be 5b3e 053e f8f4 aebe
00000350: 1f2e acbd c833 49be 3796 46bc ea64 a13e
00000360: d985 b9be 4983 603e 6c4c 6bbd 8777 3ebe
00000370: 2f0f c23e 48ae 44bc e9fc 22bc 02af ac3d
00000380: 181a e53d 98e9 16be d1c4 983d 860b 013e
00000390: 8899 283c 7eec 913d a335 63be 8d69 7abe
000003a0: 9d52 2f3d 9881 8b3d 6f42 92be 47d7 3abe
000003b0: 60e9 cb3b ba31 76be 4328 c7bc e861 58bd
000003c0: ec21 1abf 2ddc 51be 5883 52bd 4197 90be
000003d0: e5e4 b0be 1f34 c6be 983a b1bc a498 4bbe
000003e0: 034f 7abe 7450 1f3d ce26 723e b357 adbd
000003f0: 63c7 233d d6ed f9bd 3951 4c3d fa07 25be
-0.13778575 -0.23764725 0.051244218 0.42302677 -0.2939154 -0.09484257 0.027433183 0.023993934
0.0076233954 -0.1438422 -0.43682367 -0.10430367 -0.14069933 -0.081007324 0.022596389 -0.03266855
0.22719425 0.028016532 0.0054613943 -0.15409014 -0.13909738 -0.28766328 -0.10419022 -0.018423203
-0.44490054 0.7721965 -0.0035490764 0.7061888 -0.05863265 -0.4202365 -0.13263437 -0.15578635
-0.037853617 0.47887257 0.049158648 0.0120143695 -0.28292316 0.01922356 0.14185189 -0.0701393
-0.0095054265 -0.004178607 -0.08045203 -0.038170513 -0.2197767 -0.07191541 -0.1701187 -0.1993936
0.038840145 -0.24724633 0.046707895 -0.11335436 -0.35358995 -0.054740567 -0.29305854 0.017518073
-0.23255946 0.6674585 0.20822129 0.0065794284 -0.021350844 0.04543913 0.0084960405 0.21564242
-0.19996275 0.49118713 0.66919434 0.03736176 -0.1346373 0.0576966 0.0058765425 -0.17126273
-0.018566266 0.21451403 -0.18461096 -0.2093174 0.10991968 0.11845241 0.07377592 -0.07476011
-0.20611122 -0.21923198 -0.13277526 0.17422599 -0.014954639 -0.1336449 -0.0009129007 0.19417386
0.16440347 -0.2328004 -0.20391208 -0.040231626 0.013777291 -0.4485928 0.047518145 0.001869871
0.062143978 -0.10475166 0.37221754 0.070625216 0.35623586 0.034063213 -0.15600835 -0.11795977
-0.00094447134 0.004140697 -0.21562305 -0.45246997 0.05543616 -0.19297093 -0.029341435 0.074836835
0.121875405 -0.099802665 0.04864153 -0.4179498 0.14804463 0.27708676 0.052575782 -0.15614031
0.035604972 0.05496867 -0.15763016 -0.04379576 -0.032480385 -0.11557574 -0.09314079 -0.25937557
-0.35237882 0.24497525 0.39433447 0.2397115 -0.25592536 -0.103254676 -0.01755309 0.0077523626
0.04140594 -0.0065358006 -0.16951348 0.08818778 -0.32365313 0.06678985 0.06439425 0.08757976
-0.41515186 -0.0021746662 -0.10547164 -0.22174892 -0.24298504 -0.12402141 -0.61129457 0.013364365
-0.06811151 1.0032268 -0.08277451 0.41666484 -0.048729375 0.014052556 -0.283164 0.082429826
-0.0540645 -0.0048153084 0.03726116 0.036538146 0.07796287 0.06684079 -0.3687976 -0.17760229
0.05385862 0.023086969 -0.10392041 0.058043882 0.17384672 0.00014585971 0.11067901 -0.24001135
0.044864062 -0.07807135 -0.34727728 -0.16238044 -0.10895814 -0.06578166 0.08601601 0.043325074
0.039567932 -0.2162322 -0.38157588 0.00042997964 0.02139941 -0.0031772668 -0.109487325 -0.11864869
0.0020343433 0.46884885 -0.6677769 -0.0075804447 -0.15597008 0.019783042 0.020494903 -0.019983798
0.036762986 -0.3946139 0.12511584 0.22455688 -0.22594525 0.4599569 0.08548112 -0.028558332
-0.3877034 -0.19381465 0.13012068 -0.3417127 -0.084072344 -0.19648659 -0.012120775 0.31522304
-0.3623493 0.21925081 -0.05744593 -0.18600284 0.3790221 -0.0120044425 -0.009947994 0.084318176
0.111866176 -0.14737546 0.07459415 0.12602052 0.010290511 0.071251854 -0.2218843 -0.24454327
0.042803396 0.068118274 -0.2856631 -0.18246184 0.006222889 -0.24042407 -0.02431119 -0.052827746
-0.6020801 -0.20494147 -0.05139479 -0.28240398 -0.34549633 -0.3871164 -0.021634385 -0.19882447
-0.24444203 0.038895085 0.23647615 -0.08463993 0.039985072 -0.12203567 0.049882147 -0.16116324

net.4.bias f4 [4]
00000000: 32e9 1c3d d105 ab3d 1143 fa3d 3729 d13b
0.03830833 0.08350719 0.12219823 0.006383087
